ML2016-master/hw2/model.npy (npy, 544 bytes, 1 tensors)

array f8 [58]
0	0xbfd961df00d36cf4	-0.3965985782685515
1	0xbfc581bd7eff05e1	-0.16802185727105637
2	0x3fc4e9066416bd63	0.16336135756635448
3	0x3fdb14e794914feb	0.42315091618115613
4	0x3fe1224a3206087c	0.5354357697508614
5	0x3ff169bcf5a9140c	1.0883149715530207
6	0x3fffacc93339e50f	1.9796840668698825
7	0x3fe8443a7fb249d7	0.7583286756583288
8	0x3ff154d64b74feec	1.0832121799029961
9	0x3fbe9c476dc19b2f	0.11957212857815301
10	0x3fc072d3ccbad3df	0.1285042524010853
11	0xbfc4e51b3373b2b9	-0.1632417680006222
12	0x3fc16d5a5d498121	0.13614968829188803
13	0x3fc1eafbeac4cb75	0.13998364413563605
14	0x3ff2a0831708dc06	1.1641875171460483
15	0x3fef2f0020169dc2	0.9744873644566996
16	0x3ff0ee299b85c6a7	1.0581451487636657
17	0x3fcf2e99a11a3bf2	0.2436096226342382
18	0x3fb6b978bc046432	0.0887675723100905
19	0x3fe88331af53f93a	0.766014902532141
20	0x3fca82244ac18b9d	0.20709661150166606
21	0x3fbd2e3188bd891d	0.11398610676181815
22	0x40016d1d65a22a83	2.1782787265886454
23	0x3fe9ec8f98ba7185	0.8101270659422403
24	0xc003070c2d9e55d2	-2.3784411968178825
25	0xbfefef5a199d7bd3	-0.9979677677437117
26	0xc003754fea67d37d	-2.43228133324959
27	0x3fe236878b8be263	0.5691564298168256
28	0xbfe411554f0335eb	-0.6271158736432744
29	0xbfdbbf6a45a30960	-0.4335580520675162
30	0xbfd7f5a475407d4d	-0.37436782312757516
31	0x3fd7803723017ef4	0.3672006456235828
32	0xbff2a93e2c568f79	-1.1663190586050105
33	0x3fc1feacbb8e66d0	0.14058455617924048
34	0xbfe125a580dd4c8c	-0.5358455197223448
35	0x3fe5e8b5a9f38694	0.6846569365845476
36	0xbfcd1bf04d8abb9b	-0.22741512094713986
37	0xbfbda01c6cde0191	-0.11572435052767661
38	0xbfdf35026dbb83d5	-0.4876104423147443
39	0xbfdcdb75d1cad6fe	-0.4508947895768499
40	0xbfddf6e366c58524	-0.46819386516843253
41	0xbffb04b5da6ce2e0	-1.6886499912490578
42	0xbfe6176964a4a661	-0.6903578725516121
43	0xbfeb7296b507225b	-0.8577378783894106
44	0xbfe5b0ef692250be	-0.6778485349082286
45	0xbff8bacd14748488	-1.545605735686225
46	0xbfef1a8c704a9926	-0.9719907944861788
47	0xbff4544df3971208	-1.27058215286627
48	0xbfe90fd36b31ba23	-0.7831818669927241
49	0xbfed42017aeef784	-0.9143073464435791
50	0xbfeb70a2d99c9bd4	-0.8574995279531046
51	0x3fdb1cf74b184271	0.42364294370148686
52	0x3fffe9f9a5204ac1	1.994622845672595
53	0x3ff32263333e21c7	1.1958953859012682
54	0x3f8ad2d50de29832	0.01309744309066838
55	0x3f92cf23f015a1bb	0.01836830284938327
56	0xbf507a3ee2c243d4	-0.0010057081335938982
57	0xbffa312c55872869	-1.6370051709114029
